reversi_dqn_model.pth (torch, 140472 bytes, 7 tensors)

conv1.weight f4 [64, 1, 3, 3]
00000000: 837f 733e b794 663e c986 423e 4a2f 183e
00000010: 01f9 a6be 3405 843e 358c 5dbe 02e4 863e
00000020: 81ac 87be 774e 9dbe 848c 873e 4e6d 86bc
00000030: 663c 813e 7a2f a53e bc5a aebe 3cef 65be
00000040: ce69 89be b570 01bd 5426 30be 467c 913e
00000050: be9f 733e 1689 a3be 3679 adbd 7587 833e
00000060: 6226 d0bd 88c2 00be 9a32 adbd 3024 c53e
00000070: 82aa a8be e0ec 28be defa 23be d432 a83e
00000080: 9c97 cdbe 631f ee3d 27a1 693e b06b 8c3e
00000090: 904f 933e ab62 9a3e 77b1 68be 0df0 793d
000000a0: 482e 783e 58ec c7be 8692 663e 040b 8b3d
000000b0: 6cd5 a73e 4ed4 093d 8436 673d f7cc 8bbe
000000c0: 4ada 2cbe 0480 9cbe ce53 c23e 188c 6f3d
000000d0: 4bf1 513e 37a4 4c3e d56a 8d3e 2f43 1bbe
000000e0: 4bff 0fbe 72b5 54be b318 aabd 49d2 a7be
000000f0: 65e3 96be 12bf 183d 78e7 88be 504f 8bbe
00000100: 7296 003d d2f7 e93d b664 46be d978 083e
00000110: 7650 b63c e0f0 713e 0542 353e 1364 9d3e
00000120: 824e ebbd 785d 923e e98f b7be 7fe5 b13e
00000130: 3f32 52be 1618 39be 1bb6 a93e 7a7d 613e
00000140: 4804 1fbe 429f 843e a09b 773e b1b9 9dbe
00000150: 4cbd 80be dc18 9e3d e2fe 8bbe e86b c53d
00000160: f387 6abe 9b34 38be 3e39 bdbe 41b3 ce3e
00000170: ba3f d93e 2401 9cbe e11e 79bb 60fd acbe
00000180: a348 34be 52c7 933e 21d2 cbbe 81bf 253e
00000190: 4842 76be 32fa c1bd e5f7 763e 6a3d 2d3e
000001a0: 44de 8bbe 7f48 a13e 2d44 1f3e cfaf 5d3d
000001b0: 621b b43e 3ba9 bf3e 094b 8e3d f109 e7be
000001c0: 51a9 ad3e fd28 e7be 9ac2 583e 8748 833e
000001d0: bbc0 bfbe 8f2b c6be 9073 8f3e 9c45 1c3e
000001e0: 614a 9dbe 66e4 843e 4d4b fd3d 96b3 663e
000001f0: 6810 973e 5ca6 ff3d e642 b7bd 9242 523e
00000200: 5280 92bd 853f 8bbe dddd 40be f160 5d3e
00000210: baff 1f3e 83bd 873e 4204 9ebe 7e24 a23e
00000220: b148 493e db75 9e3e 032e 4b3d 62a5 673e
00000230: 48b0 8e3d 8980 a63e 39fb 3a3e 83e5 55be
00000240: 15c7 da3e 1dac 9fbe 0188 d63e f054 4fbe
00000250: 1d35 5ebe c599 36be 3b1f aabe 1a38 903d
00000260: 61c1 b73e 97c8 8b3d 06fa 7b3e ddff cdbe
00000270: 7105 063e c972 8d3e 5df8 1d3e f8a0 86be
00000280: 20f3 d6bc 4b22 a9bd 9ca0 debd 0c08 8ebe
00000290: 272f 3cbe 36df e1bd 08d2 193e 22f5 b5bd
000002a0: 18d3 02be 18b8 84be fe91 a8be e6aa 2d3e
000002b0: af4a 833e 7c4e 5c3e ff6e 013d 2ec6 4f3e
000002c0: 0b4a 9bbe 5d2a 88be b3fd a03e d792 48be
000002d0: ac52 4e3e 5e05 67be 5599 c3be 8b24 ee3d
000002e0: c58a 8e3e 3b59 b63e 92da 59be e0f9 b4be
000002f0: d92b a7bc 1ee4 ba3d f249 9abe d99d e63e
00000300: d323 adbe 683d 86be 6ade a1be 9e1d ca3d
00000310: 395c 90be d80b c43e 8dd2 023e 6ba4 96be
00000320: 6190 47bd dc5a 95be 5028 8d3e edaf 3cbe
00000330: 6a86 16be c7b9 8abe f022 8cbd 35f4 cabd
00000340: e253 61be abc2 98be 6b57 eabb 0674 533e
00000350: 3ec0 ac3e fe29 4e3e afad d43d bcae 71be
00000360: 4615 0cbe 5c94 1fbe e42f b3bd 453f 523e
00000370: d038 13be 42b1 673e 4ad3 31be 45c5 84be
00000380: 4fca 8a3e a66e a63e ca78 a2be 8c19 0c3e
00000390: d615 6fbe 4766 613e c328 963e 8f46 003e
000003a0: 1569 b7bd 68d5 993e 3fb6 cb3e 50b1 4c3e
000003b0: 8b2e 29be 8a84 a93d 9b9d b73b 0cd2 1dbe
000003c0: 4cac 8ebe 597f 0fbe 58e1 cfbd 000a 7e3e
000003d0: 5555 cdbe edcb 693e a595 b3be 1ca9 a23d
000003e0: 3baf 863e 7fcd 883e a7ad 373e e630 24bd
000003f0: cbc7 303d 8c7d 033f b414 cebe c84b a8be
0.2377911 0.22517668 0.18996729 0.1486179 -0.3261185 0.2578522 -0.21635516 0.2634583
-0.26498798 -0.30723926 0.26474392 -0.016409542 0.25241393 0.32262784 -0.340536 -0.22454542
-0.26838535 -0.031601626 -0.17202121 0.28415126 0.23791406 -0.31940526 -0.08470385 0.25689283
-0.10163571 -0.12574208 -0.08456917 0.3850417 -0.32942587 -0.1649661 -0.16013667 0.3285128
-0.4015473 0.1162708 0.22815381 0.2742591 0.2877164 0.30153403 -0.22723947 0.061019946
0.24236405 -0.39047503 0.22516832 0.067892104 0.32780015 0.033649735 0.056448475 -0.27304813
-0.16880146 -0.30566418 0.37954563 0.058483213 0.20502202 0.19984518 0.2762057 -0.15162347
-0.1406223 -0.20772341 -0.08305492 -0.32777622 -0.29470363 0.037291594 -0.26739097 -0.27208948
0.031393476 0.11424221 -0.19374356 0.1332735 0.022255164 0.23627043 0.17700966 0.30740413
-0.114895836 0.28586936 -0.35851982 0.34745404 -0.2052698 -0.18075594 0.33146748 0.22020522
-0.15528977 0.25902754 0.2418046 -0.30805734 -0.25144422 0.07719585 -0.27342898 0.09639722
-0.22903423 -0.17988817 -0.36957735 0.40371135 0.42431432 -0.3046962 -0.003801279 -0.3378706
-0.17605834 0.28863007 -0.39808753 0.16186334 -0.24048722 -0.09471549 0.24118002 0.16917959
-0.27318013 0.31500623 0.15553351 0.054122742 0.3517714 0.374338 0.069479056 -0.45124772
0.3391824 -0.4514846 0.21167985 0.2564127 -0.3745173 -0.38705108 0.28017855 0.15260929
-0.3072081 0.25955504 0.12367878 0.22529444 0.29504704 0.124829024 -0.08948307 0.20533207
-0.071533814 -0.271969 -0.18834634 0.21619011 0.15624896 0.26511773 -0.30862623 0.31668466
0.19656636 0.30949292 0.049604427 0.22621682 0.06967217 0.3251994 0.18259896 -0.20888333
0.42730013 -0.31186 0.41900638 -0.20247245 -0.21699949 -0.17832096 -0.33226952 0.070419505
0.35889724 0.06825369 0.24607095 -0.4023427 0.13088013 0.27626637 0.15426774 -0.26294684
-0.026238978 -0.08258494 -0.108704776 -0.27740514 -0.18377362 -0.11028902 0.15021527 -0.08884646
-0.12775838 -0.25921702 -0.32923883 0.16959724 0.25642917 0.21514314 0.031599995 0.20290443
-0.30329928 -0.2659482 0.31443557 -0.19587265 0.20148724 -0.22560641 -0.3820292 0.11628064
0.27840248 0.35614952 -0.21274784 -0.3534689 -0.02040665 0.09125541 -0.3013454 0.45042303
-0.33816394 -0.26218724 -0.31615 0.0986893 -0.2819536 0.38290286 0.12775631 -0.29422316
-0.048721675 -0.29170883 0.27569818 -0.18426485 -0.14699712 -0.27094862 -0.06842601 -0.0990986
-0.22004655 -0.2983602 -0.0071515343 0.20649728 0.3374042 0.20133206 0.1038469 -0.23601812
-0.1367999 -0.15583938 -0.08749369 0.20531948 -0.14377141 0.22626212 -0.17365757 -0.25931755
0.27107474 0.32506293 -0.3173278 0.1368162 -0.23348173 0.22011672 0.29327974 0.12526916
-0.0895559 0.3004563 0.3978748 0.19989514 -0.16521661 0.08277233 0.005603505 -0.15412158
-0.27865827 -0.14013423 -0.10150403 0.24808502 -0.40104166 0.22831698 -0.35075107 0.07942411
0.26305565 0.2671928 0.17937337 -0.040085696 0.043159287 0.51363444 -0.4025017 -0.32870317

conv1.bias f4 [64]
00000000: fa56 3b3e 9db5 763e 9878 133f 1608 653e
00000010: c86a 443e 684d 633e 29bf 8a3e 41a1 153e
00000020: 5dc9 033f 612b 773e edfc d13e 24b2 0c3f
00000030: 8f30 873e 07da 143e 1ad7 eb3d 164c e83e
00000040: d8e8 5d3e 086a f83d ab45 f73d 908d da3e
00000050: 3bbe e63e 143c 8e3e d419 2b3f 3b3e f33e
00000060: c2b7 4d3e 9ded bb3e 8992 133f ff3d b73e
00000070: e28c a03e e2ae 143f cfeb fa3e c484 273f
00000080: 3e69 633e bbc2 873e 5e18 cb3e 8cf8 983e
00000090: 2d03 c53d 8ad7 0d3f af06 a03e fc40 1b3f
000000a0: 7937 fb3d 14ed 963e 3ae3 143f 08ec 5a3e
000000b0: 99c1 bf3e 6064 103f 4456 bf3e 2d93 d93e
000000c0: 966c a73e 4962 9b3e ba55 ca3e b623 0b3f
000000d0: ce46 0f3f a66d 1e3f 924b 253f 35b0 0d3e
000000e0: 6ff9 da3d 9174 963e 0cc5 263f ca22 063f
000000f0: a922 fc3e f99e f53d 14d4 823e 45b9 4f3e
0.18294898 0.24092717 0.57605886 0.22366366 0.19181359 0.22197497 0.2709897 0.14612295
0.5147913 0.24137641 0.4101328 0.5495932 0.26404235 0.14536296 0.11515637 0.4537055
0.21670854 0.12129599 0.12073835 0.4268613 0.4506701 0.2778021 0.66836286 0.47508416
0.2008963 0.36704722 0.5764547 0.35789487 0.31357485 0.5807935 0.49008033 0.6543696
0.22208115 0.26515755 0.39667028 0.29877126 0.09619746 0.5540701 0.312551 0.60646033
0.1226644 0.2947775 0.5815922 0.21379101 0.3745239 0.5640316 0.37370503 0.424951
0.32700032 0.30348423 0.3951853 0.54351366 0.55967414 0.6188606 0.64568436 0.13836749
0.10692107 0.29385808 0.6514442 0.52396834 0.49245194 0.11993212 0.25552428 0.20285518

conv2.weight f4 [1, 64, 3, 3]
00000000: 08da 6a3d a0f7 c33c 657b fd3c 1544 c63a
00000010: d058 343d 280f a03d 5ffe 373d edfc 233d
00000020: ad86 163d 8fbe 843d e923 193d cc11 623c
00000030: 551f 7f3d ce74 b83d 8014 8d3d 5489 1a3d
00000040: 022f e63c e229 bf3c 0ad0 e73d 5452 073e
00000050: 1e20 2b3e dd0a be3d 6605 683d c272 a13d
00000060: 9235 f83c 4a04 683d 8e34 083e 79ad f43c
00000070: 9bc0 b53c 0053 d73c 8f0a 183d 2da7 0b3d
00000080: 1003 aa3d cd39 b23b b3dc e23c 4073 8bbc
00000090: b2e4 5c3d 1e9a bd3c 9090 fd3c f250 353d
000000a0: be1b 9a3d 347d 9d3d 3cb6 c83c 2b8d 4d3c
000000b0: 9336 8b3d 8398 0b3d dd85 113d baa3 ae3d
000000c0: 6d41 843d cfff a83d ce29 c23d 1287 913c
000000d0: f8e3 a53d 3faa 143d 8a2f c33d 76d0 bb3d
000000e0: 9d21 8b3d 8ca5 393d e970 373d 6c64 3d3d
000000f0: 34ec 633d d6bc 5b3d 4b4c b23d fa34 833d
00000100: 07eb 8d3d c0f4 093e 7346 ec3d db7e cf3d
00000110: dd7d 043e 1b0e ed3d cf0b f53d d482 a13d
00000120: 8472 4a3d 3f5d 753d bdf7 85bb d35d 983d
00000130: ac45 853d 4258 423d 2b80 8d3d dc41 753d
00000140: eb64 8f3c a834 473d 9f70 e33d cadd b93d
00000150: 070e db3d 81f9 193d 2401 a43d 5487 cd3d
00000160: 2758 293d 73ce de3c 2b85 963d b1c6 ba3c
00000170: 9e05 a43d 2f9f 263d 2c5c 283d 711a ab3c
00000180: 2de3 1c3d e159 643d 1fe4 0a3d b268 d23d
00000190: d829 503d a591 b13d 4b07 133e 2c14 ac3d
000001a0: 2142 603d f8e8 083e 1516 023e 32ef 393d
000001b0: 94c6 cabc cb0c 3cbc 1d81 9fbc a7c4 293d
000001c0: 09d0 463c 0fef 3ebc 1383 f63c b9fe cb3b
000001d0: e7da 6c3c 9902 153d 1d54 133c 1bbe a13d
000001e0: 3a42 933d a5c1 c83c e673 823d 3e5d 0c3d
000001f0: ec78 96bb 221f d73c b8ea c33d 6259 3a3d
00000200: eb31 a63d 6f2a a83d 9eea ae3d 251b 073d
00000210: eb96 763b ce6c 8f3d 7a5b 9f3d f455 fa3d
00000220: 3cf2 b23d 2727 ec3d 3a79 ac3d 5645 f23d
00000230: c568 c63d 3a35 6c3d d93d 0e3d 3eb8 bc3d
00000240: 5735 69bc 781f 963d 680c 9bba 63ae 1e3d
00000250: f7b2 183d 0ee5 f33c 233a 753b 8fbc 003d
00000260: 36dd 563d 5534 84bb 5305 1c3d ed5b 9f3d
00000270: 0f96 923d 23ec 0fbb 434a 303c 5de6 893b
00000280: 86aa 363c 3b49 983c a8fc e33d f8db 5d3d
00000290: f1b8 c53d b19a 883d 5b5d 9c3d e2fa 9d3d
000002a0: d7ad 7c3d b551 933d 7122 713d d6f6 2b3d
000002b0: 2cec 873d 9fc6 463d 2c8d 9c3d 5f7e 823d
000002c0: 9588 6f3d d071 bf3d 86ea ba3d 82d3 933d
000002d0: c8a4 a93d 1f0d 8f3d bdba a43d a83a 993d
000002e0: 868d 013e bd66 d93d bb12 b03d b270 673d
000002f0: a3bc 303d 640b 123c 5eb9 993c 3eb0 3b3d
00000300: e030 e6bc d2a7 c33b 8ebe e2bb 8c9c a7bc
00000310: f433 4d3c 0055 c83c c0bf bb3d be90 013e
00000320: ccc0 243d 42ff cc3d a19c 393d d507 ed3d
00000330: e8f6 4c3d 798f 973d d628 953d da3d ba3d
00000340: 7901 c23d bcb2 6e3d ddab f63d dfbb 7c3d
00000350: 45ad bf3d 2756 863d 641b 8f3d 7894 803d
00000360: 8ed7 423d 38d6 923d 7efb 903d 6eac b73d
00000370: 423a 083e ff88 a43d 410c fb3d 5796 003e
00000380: 1fb9 a03d e278 9e3d f461 a33d b3a9 d93c
00000390: 8db9 1b3d 24d1 d23c 6991 9c3d 1ecc 2f3d
000003a0: b5ef 0d3d 013d 963d a26b 4d3d bfd8 7c3d
000003b0: 18ac 513d 5c31 d33d ca8a a23d ab55 8c3d
000003c0: 5b0e b23d e145 ba3d cdfe 9f3d a9d1 593d
000003d0: af6e 563d 7aba 8a3c 88b0 473d 1355 c53c
000003e0: b3a6 483d e954 81bc 7f05 603d 3fe8 70bc
000003f0: ea59 1b3b f970 ad3d 5232 a03d 197c 4f3d
0.057336837 0.023921788 0.030942628 0.0015126491 0.04403001 0.07815391 0.04492032 0.04003613
0.03674953 0.06481659 0.037387762 0.013798188 0.06228574 0.09006654 0.06888676 0.037728623
0.028098587 0.023335401 0.11318977 0.13215 0.1671147 0.09279416 0.056645773 0.078832164
0.030298982 0.056644715 0.13301298 0.029867874 0.022186568 0.026284695 0.037119444 0.034094978
0.083013654 0.0054390193 0.027693128 -0.017022729 0.05392904 0.023144778 0.030952722 0.04426665
0.07524823 0.07689896 0.024500959 0.012545864 0.067975186 0.034080993 0.035528053 0.08527322
0.064577915 0.082519166 0.0948063 0.017764602 0.08100122 0.03629517 0.09530552 0.0917062
0.067935206 0.045323893 0.044785414 0.046238348 0.055645183 0.053646885 0.08705958 0.06406589
0.069295935 0.13472271 0.115368746 0.10131618 0.12938638 0.11574956 0.11965143 0.078862816
0.049425617 0.05990338 -0.0040883706 0.074397705 0.065074295 0.04744745 0.06909212 0.05987726
0.017504176 0.0486342 0.11105465 0.09075506 0.10696035 0.03759146 0.0800803 0.100355774
0.041343834 0.027198052 0.073496185 0.022799822 0.08008884 0.040679153 0.041103527 0.020886632
0.03830259 0.055749778 0.03390896 0.10273875 0.050821155 0.086703576 0.14358251 0.08402285
0.054750565 0.1337012 0.12703736 0.04539413 -0.024752893 -0.011477659 -0.019470746 0.041447308
0.01213456 -0.011653676 0.030091798 0.0062254337 0.014456487 0.03637943 0.008992222 0.07897588
0.07190366 0.0245064 0.06369762 0.03426861 -0.0045920517 0.026259962 0.095662534 0.0454954
0.0811499 0.082112186 0.085408434 0.03298487 0.0037626575 0.07003175 0.0778112 0.122234255
0.08737609 0.11530905 0.0842156 0.11829631 0.09687952 0.05766795 0.03472695 0.09214829
-0.014233909 0.07330221 -0.0011829259 0.038740527 0.03728005 0.029772308 0.0037418685 0.031429823
0.052457057 -0.004034559 0.038091015 0.07781205 0.07157528 -0.0021960817 0.010759893 0.0042083696
0.011149054 0.018589607 0.11132175 0.054164857 0.096544154 0.0667013 0.07634994 0.07713868
0.061689224 0.07193319 0.058870737 0.041983448 0.06636843 0.048529264 0.07644114 0.063717596
0.058479864 0.0934788 0.09126763 0.07218076 0.08283383 0.069849245 0.0804343 0.07481891
0.12651643 0.10615299 0.085973226 0.05650396 0.043148648 0.008913849 0.018765148 0.045822375
-0.028099477 0.0059709335 -0.0069196885 -0.02046039 0.012524594 0.024454594 0.09167433 0.12652871
0.040222928 0.10009624 0.04531539 0.115737595 0.050040156 0.07400412 0.072831795 0.090938285
0.09472937 0.058275923 0.12044499 0.061702605 0.093592204 0.06559401 0.06987646 0.06278318
0.04756885 0.07169765 0.07079218 0.08968435 0.13303474 0.080339424 0.122581966 0.1255735
0.07847809 0.077379 0.079776675 0.026570177 0.038018752 0.025734492 0.07644922 0.04291927
0.03465243 0.07335854 0.050151475 0.061730143 0.051189512 0.10312149 0.07936628 0.06852277
0.08694144 0.090953596 0.07812271 0.053178463 0.05235165 0.016934622 0.048752338 0.024088418
0.0489871 -0.015787559 0.05469274 -0.014703809 0.0023704716 0.084688134 0.07822098 0.050655458

fc1.weight f4 [256, 64]
00000000: a4e7 cabb f40f 383d 56e1 d0bd e63d 4c3d
00000010: 5a05 873d acfe a6bd c5e5 82bd 7059 d1bd
00000020: c500 d13c ca8f 933d a119 e43c 77b8 133d
00000030: b3ab d6bd 0e96 bbbd 0bf4 a93d ed58 4ebd
00000040: 63d2 153d 905e 2d3b 092c d43d 9f0a 85bd
00000050: 7a71 b3bd 8c26 ab3c 3be6 2fbd 6a7e 21be
00000060: e5ef 2fbe 1512 9a3c f17e c23d 44e8 703d
00000070: 0ace 49bd be63 ba3d d871 10be e650 b13d
00000080: 0c25 0bbe 0423 04be 5c23 9a3d 6600 263c
00000090: 5ab1 953d e693 43bc 2625 a03c 9055 cb3d
000000a0: 8180 e5bc aa79 a43d 1424 c03d 775f 143d
000000b0: aeca 033e fca6 cebd 3f6c d23c f2c9 dd3c
000000c0: 189b e93d 1385 c23d cdbd 9bbd 358b a33d
000000d0: 0864 4b3d 4001 98bd 4ee4 9bbd b958 c43d
000000e0: 9615 89bd 2da7 fdbd 79d9 143c 852c 1abd
000000f0: 561f 99bd d6e2 823d eacd 16be 34d9 a2bb
00000100: c727 7f3d d5a7 23bc dae2 79bc 0e04 c6bd
00000110: 1662 2ebd a3c2 103d 436e a4bd 98d5 603d
00000120: 2155 1bbd 6458 fd3d 4bc3 ac3d 791c 1c3e
00000130: 33d3 7f3c 3a97 89bd cc2e 0a3c 26a1 c23c
00000140: 9563 373d ecec b7bd 711f a63d dd19 e13d
00000150: 8e74 143e b60e 003e f8f5 e13d 7033 5f3d
00000160: c47b e83d 35aa 63bd e8cb bf3d ee0a 243e
00000170: 99d5 273e 5c85 073d d7c5 47bd d064 f73d
00000180: 10ae 97bd 87e8 193d 0a8c eb3d 736c 783d
00000190: 3abb 173d 5cb3 00bd 311b 053e 09cb 5d3d
000001a0: de82 0c3e 5a6c 103e 9985 953d 706e 293e
000001b0: 9d25 563d 3427 e73c 61fd 34bd cc3e 7d3d
000001c0: c460 0fbd 4fd9 a9bc 17ce 803c 976d 223e
000001d0: 5230 82bc 662a 923d 7090 953d 9f09 39bb
000001e0: 1d7b 923d 9cf3 5abd a43a 8d3d d225 35ba
000001f0: eaec 8f3d 3aab 8abd 235f 1d3e ad8c 283c
00000200: 2dfc e5bd 3548 d73d a266 22bd d058 743d
00000210: 10b2 1b3c ba3f dcbd 0933 b8bd 975d 39bb
00000220: 5e3a 713d bfce 97bd 1d68 1fbd 74c1 bfbd
00000230: 3731 13bd fc1a b33d 5fe6 08bd c253 d6bd
00000240: 2344 c7bc 301b 69bd e1e7 aa3d 643f db3d
00000250: 56bc d2bd 0653 333c 012a ce3d e463 aa3d
00000260: 10e0 ca3d 76c1 5fbb e078 14bc 1f20 33bd
00000270: 14f8 4e3d 5923 eabd 82f9 74bd 980a 65bc
00000280: 4795 eabd 88c3 d5bc 6822 29bd e059 bcbd
00000290: e7fe cd3c 31af 6c3d 30b7 45bd 8636 aebd
000002a0: a1b9 96bd 4e1a 54bd 0f67 c03d 475f 8cbd
000002b0: ea94 ccbd 43c2 a3bc 4392 b4bd 25ac efbc
000002c0: e7c8 d7bd f08e 9d3c ec55 253d 79ce c93d
000002d0: a465 e23d 58bd b5bc 7fc6 e23a f01b bab9
000002e0: 2d9d d53b fc48 813d a3c9 fb3c c0e7 133c
000002f0: 7a90 ad3b 177e 07be 00f3 c8bd ddb4 3c3d
00000300: c9c7 c7bb 8479 1c3e dfa2 233d d6bc f63c
00000310: ab68 f1ba 6d22 d1bd a133 df3c d257 0d3e
00000320: f6a5 45bb 7b14 0f3e 4443 3a3a 3824 b53d
00000330: 16e9 c6bd 8946 c43d 2de5 6bbd a808 cd3b
00000340: 5d48 093e 5c5a 0e3e 4936 123d f302 333d
00000350: 7bfa b93d 4276 9cbd ed90 13bd 2729 ad3d
00000360: 5afb 8b3d 51c7 bbbd 60bd 433d 1cc3 3e3d
00000370: 7353 123d 54b5 a23d 34cb 033e 5f45 b2bc
00000380: 8306 17bd 4261 e2bb fe73 87bd ca33 103e
00000390: 8149 b0bc bf00 f23d e77d 913d 6eec 72bc
000003a0: f15f 5bbb 78db de3d af0d a4bd e464 843c
000003b0: 9eca 49bd c765 0b3c 83fe d5bc 66b1 57bd
000003c0: 5c68 96bd 9a44 1d3e 615d d23d 39c5 823d
000003d0: a43f 2bbd 7023 9a3d be4d fd3d 02e8 ffbc
000003e0: a5cf 843d e692 973d a539 183e 93f9 613d
000003f0: f5af 38bd 2b1e ac3d 7402 c13d ddd5 20bd
-0.0061921645 0.04493709 -0.101992294 0.04986372 0.065928176 -0.081540436 -0.06391481 -0.10222137
0.025513062 0.0720516 0.027844252 0.03606459 -0.10481968 -0.0915948 0.082985006 -0.050377775
0.036577594 0.0026454069 0.103599615 -0.064961664 -0.08761878 0.020892404 -0.042944174 -0.1577088
-0.17181356 0.01880745 0.094968684 0.058815256 -0.04926876 0.091010556 -0.14105928 0.08658008
-0.13588351 -0.12903982 0.075262755 0.010131931 0.07309218 -0.011937117 0.019548964 0.09928429
-0.028015377 0.08031018 0.09381881 0.036223855 0.12870285 -0.100904435 0.025686381 0.027073834
0.11406535 0.09498038 -0.07604561 0.07985536 0.049655944 -0.074221134 -0.07611905 0.09587235
-0.0669357 -0.12385402 0.009085053 -0.037640113 -0.0747668 0.06390922 -0.14726987 -0.0049697403
0.062293794 -0.009988745 -0.0152518395 -0.09668742 -0.04257401 0.03534187 -0.08028843 0.0548912
-0.037922982 0.12370375 0.08435687 0.15245236 0.015614319 -0.06718297 0.008434009 0.023758482
0.044772703 -0.08980736 0.08111466 0.10991261 0.14497587 0.12505612 0.11033243 0.054492414
0.113517314 -0.055582244 0.09365064 0.16019794 0.16390075 0.033086166 -0.04877266 0.12079775
-0.07406247 0.03757527 0.1150132 0.0606503 0.037043788 -0.03142105 0.12998654 0.054148708
0.13721797 0.14103833 0.07300872 0.16546035 0.052281965 0.028216936 -0.044186953 0.061827466
-0.035004392 -0.020733504 0.015723271 0.15862118 -0.015892182 0.07136993 0.0730294 -0.0028234494
0.07152388 -0.05345498 0.068959504 -0.0006910238 0.0702761 -0.0677094 0.15368323 0.010287446
-0.11229739 0.10511819 -0.03964866 0.05965501 0.009502903 -0.107543424 -0.08994109 -0.0028284544
0.058893554 -0.074124806 -0.03891765 -0.0936307 -0.035935607 0.08745381 -0.033422824 -0.10465194
-0.024324482 -0.056910694 0.08345009 0.1070545 -0.102898285 0.010945087 0.10066605 0.08319834
0.09906018 -0.0034142411 -0.009062022 -0.043731805 0.050529554 -0.11432523 -0.05980826 -0.0139795765
-0.11454254 -0.026094213 -0.041292578 -0.0919683 0.025145961 0.057784263 -0.048270404 -0.08506493
-0.07359625 -0.0517829 0.09394657 -0.0685411 -0.099893406 -0.019990092 -0.0881696 -0.02925689
-0.10536366 0.019233197 0.040365145 0.09853835 0.11054543 -0.022185013 0.0017301588 -0.000354975
0.006518981 0.06312749 0.030735796 0.0090274215 0.005296764 -0.13231693 -0.098119736 0.046070922
-0.0060968143 0.1528073 0.039950248 0.03011934 -0.0018418034 -0.10211644 0.027246298 0.13803032
-0.0030158735 0.13972656 0.000710536 0.08844799 -0.09712426 0.09583766 -0.057591606 0.0062571354
0.1340651 0.13901657 0.0356963 0.043703984 0.090809785 -0.076397434 -0.036026884 0.08455115
0.06835051 -0.09168876 0.047788024 0.04657279 0.035724115 0.07944742 0.12870485 -0.021761594
-0.036871444 -0.0069085667 -0.06613921 0.14082256 -0.021519424 0.118165486 0.07104092 -0.014826877
-0.0033473934 0.10881704 -0.080104224 0.01616139 -0.049265496 0.008508152 -0.026122337 -0.052659415
-0.07344124 0.153582 0.10271717 0.063852735 -0.04180874 0.075262904 0.12368344 -0.03123856
0.064849176 0.074010655 0.1486574 0.055169653 -0.04508968 0.084041916 0.09424296 -0.039266456

fc1.bias f4 [256]
00000000: e6da 2bbf 9d4f e5be 1f91 b93d 6d10 22bf
00000010: 8c07 30bf d164 12bf cca9 443c 0bf6 0cbf
00000020: ba8a 85bb e222 61bf 513f febe 5eac edbd
00000030: bf03 ecbd a54d a7bd 6ece 29bf 77bb 05bf
00000040: e216 30bf 5dbf 92bd 4bf6 09bf aa1b 4f3c
00000050: e323 18bf c143 05bf e7fe f0be e9c5 2abf
00000060: 174c 0cbf 680a 1fbf 546b ffbe 6aef 27bf
00000070: c735 eebe 746c 38bf 8aa4 2abf b1e5 17bf
00000080: 5e99 3abf 15cf debd 9567 13bf 3780 23bf
00000090: b699 853c dbb3 17bf 500e 2cbf 74dc 04bc
000000a0: 7c07 eebd 8fc8 1dbf 0da3 9abd 50bb 88bd
000000b0: 6056 e8be acdf f8be fb8f fbbd 6363 23bf
000000c0: 8d33 06bf fbd0 03bf 0519 07bf 3467 c5bd
000000d0: a6fd 14bf e345 29bf 25a9 d53d 83e0 c4bd
000000e0: d4a4 efbe 54f3 43bf 9d97 e1be d44c 29bf
000000f0: a198 20bf fe7f ebbe 7546 fdbc 1b9e 07bf
00000100: e244 e9be 3cbb 22bf 41fc 98bd c398 bcbd
00000110: 41b7 0ebf 0bc7 99bd dc5b 0ebf ed43 d4be
00000120: e9a5 17bf 3e15 dfbe 1e84 e4bd c492 12bf
00000130: 3abe 24bf 3b02 05bf a26f 07be 329e 72bd
00000140: 77eb 01bf 3302 18bf 39aa 91bd 8d8b 2dbf
00000150: c53f 8d3d 91dc 07bf 52c7 fcbe 595f 7f3c
00000160: fe37 27bf 5f65 15bf 5c56 d3bd 7f25 25bf
00000170: b8bb d7bc bab0 20bf fc4c 13bf 7a5b 0abf
00000180: 0c08 14bf 07ab f9be 315f 31bf eef7 38bf
00000190: 7cd8 f5be 0e79 fbbe 5cdf 34bd 17da b53d
000001a0: b447 e23c 1088 703d c74c fbbe c878 39bf
000001b0: d73f fbbe 37a5 1abf 6424 9cbc fcd7 06bf
000001c0: dac8 efbe b585 19bf 7217 c2bd a61b 89bd
000001d0: 5adb 853d bf68 00bf 859f 14bf 77ec 15bf
000001e0: 502d 00bf 0c7d 24bf 1eba 94bd 2e77 ccbb
000001f0: de7c a6bd 094b 1dbf fb90 29bf 9a0d 1bbf
00000200: 7abf d6bd 7cec 13bf 0341 35bf 14bb b2bd
00000210: b779 1abf d5c6 4d3d f87e 36bf 47bd 09bf
00000220: dd30 17bf 7e22 2bbf fcc4 02bf 6128 b03d
00000230: 3fb7 55bc 75dd 27bf a88e 05bf 4608 ce3d
00000240: 2e15 efbe 3596 12bf 786e e7be a2f2 19bf
00000250: c418 0cbf 2230 30bf 645c 16bf f11e 2cbf
00000260: eeac 98bd 50af 36bd 462e 1abf 6274 a6bd
00000270: 7f34 26bf 905f cb3d c9df 20bf 6d23 26bf
00000280: 3fa1 12bf 5d31 19bf 8550 0fbf fb05 10bf
00000290: 9fbb 8dbd 94a0 36bf 5c1e 3ebf 055a cc3d
000002a0: 5663 cbbb dd9d 44bd 39c9 b8bd 9164 32bf
000002b0: 55a6 30bf 3616 dbbd 21b2 5cbd f38d dabb
000002c0: 0667 0bbf 3530 03bf b80b 28bf e6b5 05bf
000002d0: 38de 343d fd85 ddbe d09d fcbe 219a f4be
000002e0: d121 12bf 1b8f 17bf 223f 0bbf ebf4 bdba
000002f0: eea1 09bf 8244 a8bd 2a3c b73d b41b b7bd
00000300: 6fb5 d5bd 9e3c 36bf 165e 16bd ca1e eebe
00000310: 7b34 1abf b432 cdbc 834e 29bf 4aa7 1dbf
00000320: 20d2 ba3d 5501 3abf 7480 28bf 19fa 27bf
00000330: 922c 01bf a556 1dbf 33ea 05be e736 c7bd
00000340: b0aa 0bbf 006f c2bd f919 cebd 373c adbd
00000350: 81f5 11bf 352e 37bf 4a0d a5bd 15d3 a43d
00000360: e510 0fbf 8383 1abf da59 cf3d a1dc ea3c
00000370: 0d7d f2be 8c9f 0cbf 8351 11bf 6ef1 1bbf
00000380: ceef 20bf fc59 e0be 4914 1fbf f075 fabe
00000390: d080 3b3d c5c8 f0be bc90 ce3c 393e 1bbf
000003a0: 402e d5be 2d6c e9be a34e 33bf 4d5e 76bc
000003b0: 82ba 1bbf fbb3 31bf fb5a 0abf 7814 6ebd
000003c0: 8803 debc 6a22 82bd 4d48 08bf 4afc 86bd
000003d0: fd80 73bc 7beb 0fbf 0b5f 12bf 9651 f4be
000003e0: 552b 0bbf 8f93 08bf a8a1 29bf 1293 01bf
000003f0: e0dc 12bf 4e46 3fbc 3e90 d9bd 9da2 dabd
-0.6713089 -0.44787303 0.09060883 -0.63306314 -0.68761516 -0.57185084 0.012003373 -0.5506293
-0.0040753754 -0.8794385 -0.49657682 -0.11605142 -0.11524152 -0.081691064 -0.6633061 -0.52239174
-0.68784916 -0.07165406 -0.5389144 0.012640873 -0.5942976 -0.5205651 -0.47069475 -0.66708237
-0.54803604 -0.62125254 -0.49886572 -0.6559969 -0.46525404 -0.72040486 -0.66657317 -0.59334856
-0.7289027 -0.108793415 -0.5757993 -0.63867515 0.016308647 -0.5925881 -0.6720934 -0.008109201
-0.11622521 -0.61634153 -0.07550631 -0.06676352 -0.453784 -0.48608148 -0.122833215 -0.6382353
-0.5242241 -0.51490754 -0.5277255 -0.09638825 -0.58199537 -0.66122264 0.104326524 -0.09613135
-0.4680544 -0.76543164 -0.44060984 -0.66132855 -0.62732893 -0.45996088 -0.030917386 -0.52975625
-0.45560366 -0.63566947 -0.074699886 -0.092088245 -0.55748373 -0.075086676 -0.55608916 -0.41458073
-0.59237534 -0.43570894 -0.11158012 -0.57255197 -0.6435276 -0.5195653 -0.13226178 -0.059232898
-0.50749916 -0.59378356 -0.071125455 -0.6779106 0.06896929 -0.5307093 -0.4937082 0.0155866975
-0.6531981 -0.58357805 -0.10319206 -0.6451034 -0.026334628 -0.62769663 -0.57539344 -0.5404583
-0.5782478 -0.48763296 -0.69285876 -0.7225331 -0.48016727 -0.49115795 -0.044158325 0.08879488
0.027622081 0.05872351 -0.49082014 -0.7244992 -0.49072143 -0.6040835 -0.019060321 -0.52673316
-0.46832925 -0.59969646 -0.09477128 -0.06694727 0.065359786 -0.5015983 -0.5805591 -0.5856394
-0.5006914 -0.64253306 -0.072620615 -0.0062397933 -0.08129285 -0.6144262 -0.6623685 -0.6056763
-0.1048574 -0.5778272 -0.70802325 -0.087270886 -0.6034197 0.05023845 -0.7128749 -0.5380444
-0.59058934 -0.66849506 -0.51081824 0.08601452 -0.013044178 -0.6557229 -0.521708 0.10060172
-0.46695846 -0.5726045 -0.45201468 -0.60135853 -0.5472529 -0.68823445 -0.58734727 -0.6723471
-0.07454859 -0.044600785 -0.6022686 -0.08127667 -0.6492385 0.099303365 -0.6284147 -0.64897805
-0.5727729 -0.5984095 -0.5598224 -0.56259125 -0.069205515 -0.7133877 -0.74265075 0.09978107
-0.00620691 -0.048002113 -0.09022755 -0.696847 -0.690038 -0.10697596 -0.053880814 -0.0066697537
-0.54454076 -0.51245433 -0.6564288 -0.5223068 0.044157237 -0.43266287 -0.4933915 -0.4777384
-0.5708285 -0.59202737 -0.5439321 -0.0014492547 -0.5376271 -0.08216192 0.08947022 -0.08940831
-0.10434996 -0.71186244 -0.03671082 -0.46507865 -0.6023633 -0.025048591 -0.66135424 -0.6158339
0.091221094 -0.7265828 -0.65821004 -0.65615994 -0.50458634 -0.61460334 -0.13077621 -0.09727269
-0.54557323 -0.09493828 -0.10063548 -0.08458751 -0.57015234 -0.7155488 -0.08059175 0.08048073
-0.55885154 -0.6035692 0.1012456 0.028669657 -0.4736103 -0.5493095 -0.56765 -0.6091527
-0.6286591 -0.43818653 -0.6214033 -0.48918104 0.045777142 -0.47028175 0.0252155 -0.6064182
-0.41636848 -0.45590344 -0.70041865 -0.0150371315 -0.60831463 -0.69415253 -0.54045075 -0.05812499
-0.027101293 -0.0635422 -0.5323532 -0.06591089 -0.014862296 -0.5621869 -0.57176274 -0.47718495
-0.54362994 -0.53350157 -0.6626229 -0.50615036 -0.5736828 -0.011674477 -0.10623215 -0.10675547

fc2.weight f4 [64, 256]
00000000: 1602 663e 705f 9c3e c29c 033d f6cb 9a3e
00000010: 3368 4c3e fef5 913e 4862 43bd ca9e 7c3e
00000020: 9730 e3ba 94f7 a53e e8e8 823e d894 2bbc
00000030: 3224 95bb 70b9 223c 0491 923e c52c 9d3e
00000040: 1e83 6b3e 0a4f 57bd a942 873e bd4b cd3c
00000050: ac39 6b3e a517 7b3e 3650 6e3e 8faf 8b3e
00000060: b18a 523e 2807 6a3e 2a7d 843e 6a0a 373e
00000070: 6a83 4e3e e0d9 7d3e 33d7 5d3e a3f9 763e
00000080: f3f7 7c3e 2493 d53c 5822 9e3e 40a6 8b3e
00000090: 9a6e 7abc a4b5 a53e c389 a03e 47ff 443d
000000a0: 1405 3bbd 2b0e 6a3e ba3e 353d d38d 803d
000000b0: b0f5 7e3e 1a6d 613e bc7e eebb 250e 9f3e
000000c0: 5011 983e dfa5 903e 7b59 713e 6032 693c
000000d0: 98d8 613e 903a 913e 47b7 d9bc f744 9f3b
000000e0: 68c0 903e 36b4 763e 6c12 553e a592 8d3e
000000f0: bfb3 8a3e f7fa 813e 0039 aa3b 64dd 543e
00000100: 6af7 983e 758e 883e 464e 2dbd d87c 3c3d
00000110: 622b 8e3e e391 e63c f82f 763e 1a37 6e3e
00000120: 2b2d 993e 6503 573e 35bb 973d 2288 953e
00000130: 4812 703e 2435 a33e d486 43bd 1bd0 babc
00000140: 935d 893e 3965 673e 4d30 273d 6cd6 603e
00000150: 2c32 22bd e43f 583e dd50 843e 39a5 943c
00000160: b5bf 8c3e c944 a33e 6d05 f83c 88c1 893e
00000170: 3ee3 503d 50cd 9b3e 2b49 693e 777d 993e
00000180: 7734 9b3e 9cb7 703e c120 8c3e f9be 973e
00000190: 0768 583e ee26 a43e 98fd 203d 317e 83bb
000001a0: 3e61 1ebc d6b2 aabc 5bc1 823e 7f22 923e
000001b0: c81c 9b3e a8d9 703e cd72 9ebc af0c 963e
000001c0: fab3 a63e e404 663e 7f0c 82bc c5b1 353d
000001d0: 886b febc 4cdd 4e3e b62b 6b3e e525 8d3e
000001e0: 1650 9d3e 75ce 903e 780a 11bd eb8c a7bc
000001f0: 1a17 783c 91d3 743e 78b9 6c3e 1b8f 6d3e
00000200: 53bf aa3c c72e 933e ffe2 573e cc29 4ebd
00000210: dbf8 8d3e 7e00 753d b3b9 923e 2547 923e
00000220: 1814 833e 4154 873e 7358 6b3e 064b 9a3c
00000230: 2e2d b73c 769a 843e 5e20 663e 0248 c8bc
00000240: 23ec 833e 2fbe 913e de0c 553e b312 863e
00000250: 02e7 973e ba1c 4c3e 8870 723e a2e3 763e
00000260: 10c7 01bd e2bc 7a3c b683 9c3e 50c6 84bb
00000270: 4ec5 9d3e 32ac 163d ba5e 9f3e 2230 903e
00000280: a798 a03e dcc5 853e b207 9e3e bf14 9d3e
00000290: e6e8 fcbc 50b0 843e 8106 8c3e b8ff a03d
000002a0: 8bc7 a6bc 9c12 4b3d 8ee3 10bc 7040 a23e
000002b0: 12de 963e 7811 b6bc b544 103c 272b 073d
000002c0: 894c 8a3e ce3b 8f3e 6efc 863e 1ea0 983e
000002d0: bac2 553c 66eb 7c3e 64be 9f3e 6d1a 9a3e
000002e0: 24f1 543e f771 883e 802e 9a3e 7091 793d
000002f0: 5814 753e b66c 003d 055d 44bc 00cf e039
00000300: 6bee ddbb 9b06 993e b958 36bc c956 4f3e
00000310: 6e08 923e b7c0 043c 2705 993e 148a 7c3e
00000320: 4682 8f3c 79b0 8d3e 6e95 9e3e 9adb 5d3e
00000330: 0b5b 963e ba41 743e 6d07 44bd c495 003c
00000340: 9b9a 9a3e 84e6 f9bc 1fa4 48bd b772 423d
00000350: c4c0 833e 94d7 9d3e 7037 383d 1f45 f9bc
00000360: becd 9a3e 1793 4f3e e49f 02bd b7e8 8e3d
00000370: 3176 553e d758 6c3e a1e8 4c3e 0421 723e
00000380: 1675 6a3e 2ecb 8b3e 40f3 823e 95b8 543e
00000390: d7e4 3b3d bb8e 993e 87b5 01bd b8c6 903e
000003a0: 9d0d 5f3e 8403 8c3e 6036 823e ae36 113c
000003b0: 37b6 573e 5738 933e c389 843e 270d 2e3d
000003c0: c591 11bd f895 2ebc 19b4 a73e 60ae 91bc
000003d0: f8a3 2ebc 5753 a13e ebfb a23e 7fc7 593e
000003e0: 6110 743e a5ef 8c3e 273a 563e c4a0 843e
000003f0: 3f90 a53e 7122 1cbd 5230 3c3d 0aef 5fbd
0.22461733 0.30541563 0.032131918 0.30233735 0.19961624 0.2850799 -0.04770115 0.24669948
-0.0017333206 0.3241545 0.25568318 -0.010472499 -0.004551434 0.009931907 0.28626263 0.3069822
0.22999236 -0.052565612 0.26418045 0.025060529 0.22971219 0.24520738 0.23272786 0.27282378
0.20560719 0.22854292 0.25876743 0.17875066 0.20167318 0.24790144 0.21664123 0.24118666
0.2470396 0.026071139 0.30885577 0.27275276 -0.0152851585 0.32365143 0.31355104 0.048095014
-0.04565914 0.22856967 0.044249274 0.06277051 0.2489841 0.22014275 -0.0072782915 0.3106548
0.29700708 0.2825155 0.2356929 0.014233202 0.2205528 0.28364992 -0.026576651 0.004860516
0.28271794 0.24092183 0.20807809 0.27650943 0.2709026 0.25386783 0.005194783 0.20787579
0.29876262 0.26671186 -0.042310975 0.046017498 0.27767473 0.028145736 0.24041736 0.23263207
0.29917273 0.20997389 0.07408754 0.29205424 0.23444474 0.3187648 -0.047736004 -0.02280431
0.26829204 0.22597207 0.040817548 0.21956795 -0.03959863 0.21118122 0.25842944 0.01814519
0.2749001 0.31888416 0.030276025 0.26905465 0.050997965 0.30430079 0.22781818 0.29978535
0.30313465 0.23507541 0.2736874 0.29637888 0.21133433 0.3206095 0.039304346 -0.004012846
-0.009666739 -0.020837229 0.25538144 0.28541943 0.30295396 0.2352053 -0.01934185 0.29306552
0.32559186 0.22462803 -0.0158751 0.044358987 -0.031057134 0.20201606 0.22965893 0.27567974
0.30725163 0.28282514 -0.035410374 -0.020452937 0.015142227 0.23908831 0.23117626 0.23199122
0.020843184 0.28746626 0.21082686 -0.05033283 0.27728924 0.059814923 0.28657302 0.28569904
0.25601268 0.26431468 0.2298296 0.018834602 0.02236041 0.25899094 0.22473285 -0.024448399
0.25766096 0.2846541 0.2080569 0.2618614 0.29668432 0.19932833 0.2367574 0.24110273
-0.03168398 0.015303822 0.30569237 -0.004051961 0.30814594 0.036785312 0.31126958 0.28161722
0.31366464 0.26127517 0.30865246 0.3067989 -0.030872773 0.25915766 0.27348712 0.078612745
-0.020358821 0.049578294 -0.008843316 0.31689787 0.294663 -0.022225127 0.0088054435 0.033000138
0.27011517 0.27975315 0.26364464 0.2980966 0.013046915 0.24699172 0.31199944 0.30098286
0.20795113 0.26649448 0.30113602 0.060929716 0.23933542 0.031353675 -0.011985068 0.00042878836
-0.0067728064 0.29887852 -0.011129552 0.2024795 0.28522056 0.008102587 0.29886743 0.24662048
0.017518174 0.276737 0.3097338 0.21665803 0.29366335 0.23853198 -0.047858644 0.007848207
0.3019608 -0.030505426 -0.048984643 0.04747268 0.25733006 0.30828536 0.044974744 -0.030428467
0.30235094 0.20270954 -0.031890765 0.069779806 0.20845868 0.23080765 0.20010616 0.23645407
0.22896227 0.2730345 0.2557621 0.20773537 0.045872536 0.29991707 -0.03166726 0.2827661
0.21782537 0.27346432 0.2543211 0.008863134 0.21065603 0.2875392 0.25886354 0.04249301
-0.035539407 -0.0106558725 0.3275459 -0.017783344 -0.01065921 0.31508896 0.31832823 0.21267508
0.23834373 0.27526584 0.20920621 0.25903904 0.32336614 -0.038118783 0.04594452 -0.054671325

fc2.bias f4 [64]
00000000: baf9 86bf 66be 61bf f679 8cbe ea66 4fbf
00000010: ab7d 4dbe 668e e4be b3a6 86bf b963 b3bf
00000020: c8e8 7abd fca8 dd3c 3839 8e3c 5012 883b
00000030: 3205 173d dae9 483d eef7 7c3d 78b3 183c
00000040: ac3a c83c 92cf 5ebd 82d4 743d a408 663d
00000050: 00b4 d4b9 40e1 723b 209c d1bc e063 82bc
00000060: ac3b ccbc d603 58bd 9030 debc 6c4b 41bd
00000070: 00a0 003d cefe 783d 08a2 1cbc 6260 11bd
00000080: 76d6 2d3d ecd2 3dbd 20c2 823c 7299 0c3d
00000090: 2099 8fbb b6f6 703d 28f0 4b3c c0ba f9ba
000000a0: 7692 3d3d 10b9 8fbb a86d 4ebc b88b dd3c
000000b0: d670 293d c0be 47bb c0e8 14bb 5883 1c3d
000000c0: d0e6 f3bb 2ecd 2e3d 580e 52bd fcc6 da3c
000000d0: 5eba 05bd c878 4ebd 90da fb3c b03f f83b
000000e0: 04f7 ba3c 1e8a 643d aa5c 0f3d 1c94 803c
000000f0: fcdd 16bd 222c 603d a086 62bb 4075 16bc
-1.054496 -0.8818115 -0.274368 -0.8101641 -0.2006747 -0.4463989 -1.0519623 -1.4014808
-0.061257154 0.027058117 0.017361268 0.0041525736 0.03687019 0.049051143 0.06175988 0.009320132
0.02444204 -0.054397173 0.059772976 0.056160584 -0.00040569901 0.003706053 -0.025587142 -0.015916765
-0.024930798 -0.052738033 -0.027122766 -0.04719107 0.031402588 0.060789876 -0.009560116 -0.03549231
0.042440854 -0.04634373 0.015961707 0.034326024 -0.0043822676 0.058829032 0.012447394 -0.0019052848
0.046282254 -0.004386075 -0.012599386 0.027044162 0.041367374 -0.0030478686 -0.0022721738 0.038211197
-0.0074432865 0.042676143 -0.05128321 0.026706211 -0.032648437 -0.050408155 0.030743867 0.0075759515
0.022822864 0.05579578 0.03500048 0.015695624 -0.036832795 0.05472959 -0.0034565106 -0.009183228
